models/kws_model.tflite (tflite, 15296 bytes, 8 tensors)

arith.constant3 f4 [10]
0	0xbc543217	-0.0129513955
1	0x3c42dc78	0.011893384
2	0x3c4a087a	0.0123311225
3	0x39423525	0.0001852108
4	0xbc4739b7	-0.012159756
5	0x3c406f2a	0.011745254
6	0xbc356f57	-0.011073909
7	0x3c0393dc	0.008030858
8	0x3bde94f8	0.006792661
9	0xbc1f0028	-0.009704627

arith.constant4 f4 [32]
0	0xbc80f45e	-0.015741523
1	0x3a04c8fa	0.0005065348
2	0x3b2c95b3	0.0026334345
3	0x00000000	0.0
4	0xb9c4264f	-0.00037412575
5	0xbbe4c58a	-0.0069815563
6	0xbc28969f	-0.010289817
7	0x3ba82c0e	0.005132205
8	0xbafad0bd	-0.0019135695
9	0xbb9d7327	-0.004804987
10	0xbc160f17	-0.009158871
11	0x00000000	0.0
12	0xb9fed20f	-0.0004860316
13	0xbbd5e3b8	-0.0065273903
14	0xbc63ef37	-0.013912014
15	0x3b590f73	0.003312078
16	0xba8380f3	-0.0010032937
17	0xbc80836c	-0.015687667
18	0xbb31e01e	-0.002714164
19	0xbc205fb8	-0.009788446
20	0x00000000	0.0
21	0xbb4e362f	-0.0031465401
22	0x00000000	0.0
23	0xbbfa84f7	-0.007645245
24	0xbbac252d	-0.005253455
25	0x3c112d3e	0.008860884
26	0xbc09e4c2	-0.0084163565
27	0xbc5ddbcd	-0.013541174
28	0x3b5cd50e	0.0033696326
29	0x3c19275e	0.009347765
30	0x3c2e9870	0.010656461
31	0xbc20c48d	-0.009812486

arith.constant5 f4 [10, 32]
0	0xbeacdc89	-0.33762005
1	0x3e814f36	0.25255746
2	0x3d48e93b	0.04905055
3	0xbeb4a43f	-0.3528156
4	0x3e8e89b1	0.27839425
5	0xbe299ac6	-0.16562948
6	0x3d7f773d	0.062369574
7	0xbd637929	-0.05553547
8	0x3ebf9d6b	0.37424788
9	0xbe7992ba	-0.24372378
10	0x3eae1c27	0.34005854
11	0x3e3f74ea	0.18696943
12	0xbeadda7d	-0.33955756
13	0xbcd4cc09	-0.025976198
14	0x3e530c4e	0.20610163
15	0x3ea993e8	0.33120656
16	0xbe475127	-0.19464551
17	0x3dc18157	0.09448498
18	0xbeb6bec9	-0.35692433
19	0xbe16b45b	-0.14717238
20	0x3e643346	0.22285184
21	0xbe1ebe8f	-0.1550238
22	0xbda408fc	-0.08009526
23	0xbd2f64c0	-0.042820692
24	0x3e5a7773	0.21334629
25	0xbe03db53	-0.12876634
26	0x3e4550ee	0.19269153
27	0x3e902b1f	0.281579
28	0xbd31a5cb	-0.043371003
29	0x3e27f9d7	0.164039
30	0x3ce027d6	0.027362745
31	0x3e8aafe4	0.2708732
32	0xbe83fe90	-0.25780153
33	0x3e121f3d	0.14269729
34	0x3e68651e	0.22694823
35	0xbe98cbce	-0.2984299
36	0x3e73b181	0.23798181
37	0x3d7d5cd5	0.06185611
38	0xbe6c4143	-0.2307177
39	0x3e22e524	0.15907723
40	0x3e476098	0.19470441
41	0x3d257777	0.040397134
42	0xbe9aea80	-0.30257034
43	0x3e9237af	0.28558108
44	0x3dd02ca3	0.10164764
45	0x3e354c20	0.1770482
46	0x3d55ab28	0.05216518
47	0xbd3a0d74	-0.045422986
48	0x3df13e50	0.11779463
49	0xbeab0c69	-0.33407906
50	0x3eb5eddf	0.35533044
51	0xbe8d3b70	-0.2758441
52	0x3ebc3967	0.36762545
53	0x3d0a0e87	0.03370526
54	0xbebf1adf	-0.3732519
55	0x3e003c50	0.12523007
56	0xbe2c0281	-0.1679783
57	0x3ec32313	0.38112697
58	0x3eb8ce03	0.36094674
59	0xbea6d532	-0.3258453
60	0xbe8174b6	-0.25284356
61	0xbe57623b	-0.21033566
62	0xbe806b90	-0.25082064
63	0xbe753aba	-0.23948184
64	0xbea587c4	-0.32330143
65	0x3df97e11	0.121822484
66	0x3e4f1afa	0.20225134
67	0xbe53e4f1	-0.20692803
68	0x3e8fe3ef	0.28103587
69	0xbe88e80e	-0.26739544
70	0x3e8ee6ad	0.27910367
71	0x3e8bcd25	0.2730495
72	0xbeb66582	-0.3562432
73	0xbd9bdc1f	-0.07610344
74	0x3e07930d	0.13239689
75	0x3ea668df	0.32501885
76	0x3d01317b	0.03154133
77	0xbd339b66	-0.04384937
78	0xbea3eacd	-0.32015076
79	0x3e44f6aa	0.1923472
80	0xbe3c9db6	-0.18419537
81	0xbbf7a446	-0.0075574247
82	0xbe06689d	-0.13125844
83	0xbeaf7798	-0.3427093
84	0xbe9b2f2c	-0.30309427
85	0x3e6dcfa9	0.23223747
86	0xbe57b373	-0.21064548
87	0xbeaf64e9	-0.34256676
88	0xbdf82e24	-0.121181756
89	0x3cd92c50	0.026510388
90	0xbe3306c6	-0.17483053
91	0x3e5f9a15	0.21836121
92	0xbdb1b4dd	-0.08677075
93	0x3da80122	0.08203341
94	0x3e9dc4c4	0.30814183
95	0xbe78edc5	-0.24309452
96	0xbe5578f0	-0.20846915
97	0x3eb0af1e	0.34508604
98	0x3df80c6f	0.121117465
99	0x3e95e173	0.29273567
100	0x3e99bcfe	0.30027002
101	0x3ddee897	0.10884207
102	0x3dfdbae9	0.12389166
103	0xbe4fd8c1	-0.20297529
104	0xbda6b90f	-0.08140766
105	0xbd19d6bc	-0.037558302
106	0x3e840dd9	0.25791815
107	0x3e98eaa7	0.29866526
108	0x3e026faa	0.12737909
109	0x3d8d9a44	0.069141895
110	0x3ca257ae	0.0198172
111	0xbe4f6f27	-0.20257245
112	0x3e003c22	0.12522939
113	0xbdbf9019	-0.09353656
114	0x3d8d4582	0.06898023
115	0xbe0b3eff	-0.1359825
116	0x3e66270e	0.22475836
117	0x3e77838c	0.24171275
118	0x3dd576a0	0.104230165
119	0xbdce4bcd	-0.100730516
120	0x3e8dca02	0.27693182
121	0xbe2bdbe5	-0.16783102
122	0x3e99f7fa	0.30072004
123	0x3dc05540	0.0939126
124	0xbe8421ab	-0.25806937
125	0xbe98e055	-0.29858652
126	0xbe5103cf	-0.20411609
127	0x3dae93dd	0.085242964
128	0x3e140338	0.14454353
129	0xbeb01b21	-0.34395698
130	0xbe60f8ef	-0.2196996
131	0xbe4c5f24	-0.19958168
132	0xbc8c20e6	-0.017105531
133	0x3d337524	0.043812886
134	0xbea660ff	-0.32495877
135	0x3d3b0bb7	0.04566547
136	0xbeb874a9	-0.36026505
137	0xbe61893e	-0.2202501
138	0x3e652264	0.223764
139	0xbe664522	-0.2248731
140	0xbe0cb689	-0.13741507
141	0xbe1a0013	-0.15039091
142	0x3eb2e44b	0.349398
143	0x3e63c4e3	0.22243075
144	0xbe880a2b	-0.26570258
145	0x3e890b9b	0.26766667
146	0xbe0f8604	-0.14015967
147	0x3e3f9f25	0.18713053
148	0xbeb78434	-0.3584305
149	0xbd0f4d1e	-0.034985654
150	0xbeb77ff4	-0.35839808
151	0xbea5b93a	-0.3236788
152	0x3ea78f4a	0.32726508
153	0xbe076ec2	-0.13225845
154	0xbd114238	-0.03546354
155	0xbe9c297d	-0.30500403
156	0xbe93e410	-0.28884935
157	0x3d221204	0.039567962
158	0x3ea9fd12	0.3320089
159	0x3e5a248b	0.21303003
160	0xbe3e74fd	-0.18599315
161	0xbcf5ae32	-0.02999029
162	0xbeb7d6ba	-0.3590601
163	0x3dfffde4	0.12499598
164	0x3e1fc4e9	0.15602459
165	0x3d393272	0.045214124
166	0xbe2f213e	-0.17102525
167	0x3e142c26	0.14469966
168	0x3e97b721	0.29631904
169	0xbe30302b	-0.17205875
170	0xbd62764c	-0.055288598
171	0xbe875029	-0.26428345
172	0x3e86e4fe	0.26346582
173	0x3e56e965	0.2098747
174	0x3e281436	0.1641396
175	0x3d8c770f	0.06858646
176	0xbe5d2dfd	-0.21599574
177	0xbe91b9e6	-0.28462142
178	0xbe42f5b9	-0.19039048
179	0xbe905631	-0.2819076
180	0x3d87d9a4	0.066333085
181	0x3e57628a	0.21033683
182	0x3de1ec08	0.110313475
183	0x3ea69a5c	0.32539642
184	0xbdc0dfd3	-0.09417691
185	0xbc826808	-0.015918747
186	0x3de7d331	0.113195784
187	0x3e797be0	0.24363661
188	0xbe75767f	-0.23970984
189	0xbec3548b	-0.3815044
190	0x3d853dc7	0.06505924
191	0xbcb01d5f	-0.02149838
192	0x3e82898c	0.25495565
193	0x3da40379	0.08008475
194	0x3e41e726	0.18935832
195	0xbe5af586	-0.21382722
196	0x3e0a987f	0.13534735
197	0xbe986fd5	-0.2977282
198	0x3e9dd79d	0.30828562
199	0x3d15c526	0.03656497
200	0xbe7ce79b	-0.24697725
201	0x3e964818	0.29351878
202	0xbe4d97f2	-0.20077494
203	0x3ea63863	0.32464895
204	0xbd229d8a	-0.039701022
205	0x3ea5ebff	0.32406613
206	0x3df37d43	0.11889126
207	0xbe501a5a	-0.20322552
208	0xbdf5ddd8	-0.12005204
209	0x3dfc9b17	0.123342685
210	0xbc07e1c8	-0.008293577
211	0x3e8d5cd8	0.27609897
212	0xbe0051b2	-0.12531164
213	0xbe224def	-0.15850042
214	0xbe98a2e6	-0.29811782
215	0x3eacec2a	0.3377393
216	0x3e50c03d	0.20385833
217	0x3db4a13c	0.088198155
218	0xbea31198	-0.3184936
219	0xbdbb4c80	-0.091454506
220	0xbe31f29a	-0.17377701
221	0xbec43d39	-0.3832796
222	0xbea8911a	-0.32923204
223	0xbe8a83af	-0.27053592
224	0xbe155906	-0.14584741
225	0xbe83acf6	-0.25717896
226	0xbe6d0404	-0.23146063
227	0x3e986131	0.2976165
228	0x3e0d7feb	0.13818328
229	0x3eb93f86	0.36181277
230	0xbeaac46a	-0.33352977
231	0xbea3d232	-0.31996304
232	0x3d88f01e	0.06686424
233	0x3d96b086	0.07357888
234	0x3e810391	0.25198033
235	0x3e9e6685	0.3093759
236	0xbea0a981	-0.3137932
237	0xbc0eb533	-0.008710193
238	0xbe293b43	-0.16526513
239	0xbdfda58e	-0.12385093
240	0x3e9cedf5	0.30650297
241	0xbdbaf466	-0.091286466
242	0xbeaf42c1	-0.34230617
243	0x3e167b41	0.14695455
244	0xbe1e4907	-0.15457545
245	0xbe31849b	-0.17335741
246	0xbdc90e80	-0.09817219
247	0xbd9b3507	-0.075784735
248	0xbe88b6c1	-0.2670193
249	0xbebedded	-0.3727869
250	0xbe3d5560	-0.18489599
251	0x3b850c36	0.0040602935
252	0x3e9da1e0	0.30787563
253	0x3e8b6cd9	0.27231482
254	0x3d55cdf2	0.052198358
255	0xbe3413d2	-0.17585686

arith.constant6 f4 [16]
0	0xbaf97499	-0.0019031941
1	0x3bafc716	0.005364309
2	0x3c4ac1cc	0.012375306
3	0xbc7624ce	-0.015023423
4	0xbc261f09	-0.010139235
5	0xbb6078e9	-0.0034251756
6	0xbc1404f5	-0.009034385
7	0xbc85a6d9	-0.01631491
8	0xbc6d26f5	-0.01447462
9	0xbc6ad0ed	-0.014332038
10	0xbc705bbc	-0.014670309
11	0xbc1de1df	-0.009636371
12	0x3c4d8f05	0.012546306
13	0x3b8ef0d4	0.004362205
14	0xbc22979b	-0.009923841
15	0x3bf97bcf	0.007613636

arith.constant7 f4 [8]
0	0x3bb86f9e	0.00562854
1	0xbb3704db	-0.0027926478
2	0xbc865bb3	-0.016401147
3	0xbc535b41	-0.012900175
4	0xbc4ecff4	-0.012622822
5	0x3c6da52c	0.014504712
6	0xbc511bc0	-0.012762964
7	0xbc778568	-0.01510749

arith.constant11 f4 [16, 1, 3, 8]
0	0xbdbbf2c2	-0.09177162
1	0xbe33b031	-0.1754768
2	0xbe57f727	-0.21090375
3	0x3e8159b4	0.2526375
4	0xbd8fcd2f	-0.070215575
5	0x3e3b3e6f	0.18285535
6	0x3e34792b	0.17624347
7	0x3df0921f	0.117466204
8	0x3e0f2046	0.13977155
9	0xbe89f112	-0.26941735
10	0x3ca40657	0.020022554
11	0x3c069a46	0.008215493
12	0x3d10e161	0.035371188
13	0xbe980c18	-0.29696727
14	0x3e6fa249	0.2340175
15	0x3dde95db	0.108684264
16	0x3da054fb	0.07828709
17	0xbdf7612e	-0.120790824
18	0x3d30b4ac	0.043141052
19	0x3e6a4282	0.22876933
20	0xbe90e832	-0.2830215
21	0xbe68376e	-0.22677395
22	0xbd949ed9	-0.0725686
23	0xbe8471bf	-0.2586803
24	0x3d3a2cad	0.045452762
25	0xbe82aa41	-0.25520518
26	0xbc07c35f	-0.008286326
27	0x3e88ff60	0.26757336
28	0x3e9034d0	0.28165293
29	0xbdc5e406	-0.09662633
30	0xbdfda6e5	-0.12385348
31	0xbe368110	-0.17822671
32	0x3e13799e	0.14401862
33	0x3bbaaa77	0.0056965905
34	0x3e8d92c0	0.27651024
35	0x3c8e9c95	0.017408649
36	0xba5591fd	-0.0008147059
37	0x3ddac3a0	0.10681844
38	0xbe7f92e4	-0.24958378
39	0x3e1c83ae	0.15284607
40	0xbe24a2b4	-0.16077691
41	0x3e43282e	0.19058296
42	0xbde6b8b1	-0.11265696
43	0xbe3f38d8	-0.18674028
44	0x3d62d079	0.055374596
45	0xbe0338db	-0.12814657
46	0xbe4c655b	-0.19960539
47	0xbe28fc82	-0.16502574
48	0xbcbd3467	-0.023096276
49	0xbcb62b93	-0.022237575
50	0x3e41567c	0.18880647
51	0x3e97c843	0.29644975
52	0x3e4cd53a	0.20003214
53	0xbe190930	-0.14944911
54	0x3e60086c	0.21878213
55	0x3e1598ee	0.1460912
56	0xbd5b956b	-0.053609293
57	0xbe837b62	-0.2568007
58	0xbd8c18a9	-0.06840641
59	0x3d87125b	0.06595298
60	0x3c81d5c4	0.015849002
61	0x3e7f02ba	0.24903384
62	0x3e4ce18b	0.20007913
63	0x3cbc4bc4	0.022985347
64	0x3c45bd31	0.0120690325
65	0x3e2c8f99	0.16851653
66	0xbdba1729	-0.09086449
67	0x3d3ccf95	0.046096403
68	0x3df7e229	0.121036835
69	0xbe84d611	-0.2594457
70	0xbe800b8d	-0.25008813
71	0x3d621f16	0.055205427
72	0x3e6257e8	0.22103846
73	0xbe93d9ab	-0.28877005
74	0x3c676374	0.014122833
75	0x3d20185e	0.03908574
76	0x3d49ce62	0.049269088
77	0x3dd6a249	0.10480172
78	0x3e114bfb	0.1418914
79	0x3e395b38	0.18101203
80	0x3e1a1aae	0.1504924
81	0x3ca8311c	0.02053123
82	0xbe9163ad	-0.2839636
83	0x3e4f30d0	0.20233464
84	0xbe44a062	-0.19201806
85	0xbe9374c8	-0.28800035
86	0x3e6da545	0.23207577
87	0x3e874c5a	0.2642544
88	0xbe202f53	-0.15643053
89	0xbe6ee4e6	-0.23329505
90	0x3e8bd251	0.27308896
91	0xbe5736fb	-0.21017067
92	0x3da2cd44	0.079493076
93	0x3d8741e2	0.06604363
94	0x3d665886	0.056236766
95	0x3b8b894f	0.004258312
96	0x3e8ddf2d	0.27709332
97	0xbe2d8740	-0.16946125
98	0x3d92f9ca	0.0717655
99	0x3e86b4ca	0.26309806
100	0x3e3e0006	0.18554696
101	0x3e593612	0.21212032
102	0xbd940d67	-0.07229119
103	0x3d10e4b4	0.03537436
104	0xbe1ffea5	-0.15624483
105	0xbd07ec9d	-0.033184636
106	0xbdf5895a	-0.11989088
107	0x3e2f9eea	0.17150465
108	0xbc920900	-0.017826557
109	0xbdf29fcd	-0.11846886
110	0x3e8ba73b	0.27276024
111	0x3dd77a25	0.10521344
112	0xbe4bec95	-0.19914468
113	0xbe85f555	-0.26163736
114	0xbe14872a	-0.14504686
115	0x3de42fd2	0.111419335
116	0x3c4eca37	0.012621454
117	0xbcaa4ec5	-0.020789513
118	0x3e0953ca	0.13410869
119	0x3d02347f	0.031788345
120	0xbd9936d1	-0.074811585
121	0x3e383198	0.17987669
122	0xbdc61a5a	-0.09672995
123	0x3e8abe75	0.27098432
124	0x3e5981ea	0.21240965
125	0xbd770c27	-0.060314324
126	0x3e76c992	0.2410033
127	0x3e89da14	0.26924193
128	0x3e2b5440	0.16731358
129	0x3d46e8dc	0.048561916
130	0x3dbd0121	0.09228731
131	0x3e562723	0.20913367
132	0x3d8aa454	0.06769624
133	0xbe398d51	-0.18120314
134	0x3e0f40be	0.13989541
135	0x3e3fd4bb	0.18733494
136	0x3e949405	0.2901918
137	0x3dacd013	0.084381245
138	0x3e8806f8	0.26567817
139	0x3d816580	0.06318188
140	0x3d55968e	0.052145533
141	0x3e8f588b	0.2799724
142	0xbcfd2f32	-0.030906294
143	0x3e071570	0.13191772
144	0xbe280afb	-0.16410439
145	0xbe68558b	-0.22688882
146	0x3e6e8e8a	0.23296562
147	0x3e5c2455	0.21498235
148	0xbe087aad	-0.13328047
149	0xbd0aac54	-0.03385575
150	0x3dfb6b03	0.1227627
151	0x3e8a3545	0.26993766
152	0xbe1a2e21	-0.1505666
153	0x3e0438e4	0.12912327
154	0xbe4103b3	-0.18849067
155	0x3a336d80	0.0006844625
156	0x3e3f6925	0.18692453
157	0x3e051869	0.12997593
158	0xbe4b9442	-0.19880775
159	0x3df5be9e	0.11999248
160	0xbe93a813	-0.28839168
161	0xbe3e3476	-0.185747
162	0xbddf4909	-0.10902602
163	0xbdc735e7	-0.09727078
164	0x3e035363	0.12824778
165	0x3e848b43	0.25887498
166	0xbe94f84b	-0.29095683
167	0x3e6758e2	0.225925
168	0xbdda229b	-0.10651132
169	0xbe04272d	-0.1290557
170	0xba439d5e	-0.0007462109
171	0x3e42bfa3	0.19018416
172	0xbd95eb01	-0.07320214
173	0x3d834f1a	0.06411572
174	0x3d9801f5	0.07422248
175	0x3e30512b	0.17218463
176	0x3c8d34f0	0.017237157
177	0xba94e685	-0.0011360204
178	0x3e4d0dba	0.20024768
179	0x3e77c0f2	0.24194697
180	0x3cf44a83	0.029820686
181	0x3e5c9cdc	0.21544212
182	0xbcd079d3	-0.025448715
183	0xbe419701	-0.1890526
184	0x3e6ce72f	0.23135065
185	0xbe8a02e0	-0.26955318
186	0x3df9ce96	0.12197606
187	0x3e066322	0.13123754
188	0x3df9f8fd	0.12205694
189	0xbe0f8d57	-0.1401876
190	0x3d1e1aa2	0.038599618
191	0xbd86a8aa	-0.06575139
192	0xbe9394bc	-0.28824413
193	0x3dbaa158	0.09112805
194	0x3e133983	0.14377408
195	0x3e271bbd	0.16319175
196	0xbe2e117d	-0.16998859
197	0x3e6ced79	0.23137464
198	0x3e8526fd	0.26006308
199	0x3e7a1b83	0.24424557
200	0xbe8028b1	-0.25031045
201	0xbe002032	-0.12512282
202	0xbe7926c8	-0.243312
203	0xbe44af58	-0.19207513
204	0xbe652757	-0.22378288
205	0x3e89c51c	0.26908195
206	0x3dd16e29	0.102260895
207	0xbe46710b	-0.1937906
208	0xbe6f862f	-0.2339103
209	0xbe90cf36	-0.2828309
210	0xbe85525b	-0.26039395
211	0x3e03ea5d	0.12882371
212	0x3df5a8b2	0.11995067
213	0x3dce6ee2	0.10079743
214	0xbe15ae89	-0.14617361
215	0x3e01f775	0.12692054
216	0xbe6119d6	-0.21982512
217	0x3e135fdb	0.14392035
218	0x3e4fa850	0.2027905
219	0x3e8a2aba	0.26985723
220	0xbcba2009	-0.022720354
221	0xbe355e2b	-0.17711703
222	0xbddacdf8	-0.10683817
223	0xbda79573	-0.08182802
224	0x3dabf8e3	0.08397081
225	0xbdd5f16a	-0.10446437
226	0xbe7cb3a4	-0.24677902
227	0xbe4430e6	-0.19159278
228	0x3df7fc0b	0.1210862
229	0x3cac9204	0.02106572
230	0x3e4bcedd	0.19903131
231	0x3e41c698	0.18923414
232	0xbe4d2f02	-0.20037463
233	0x3e5a9d95	0.21349175
234	0x3e8a5f92	0.2702604
235	0xbe010e23	-0.12603049
236	0x3e6494f0	0.2232244
237	0xbe265d26	-0.16246471
238	0x3e34cc55	0.17656071
239	0x3e36eafd	0.17863078
240	0x3e1caf3f	0.15301226
241	0x3e193a1e	0.14963576
242	0x3e55a440	0.20863438
243	0xbe80396e	-0.25043815
244	0xbd8b23e7	-0.06793957
245	0xbe6defd5	-0.2323602
246	0x3e7b6ed7	0.24554001
247	0x3dcafa64	0.099110395
248	0x3dc9a5f7	0.098461084
249	0x3e44072e	0.19143364
250	0xbde0ae4f	-0.10970747
251	0xbe0a4feb	-0.13507049
252	0x3da9d14a	0.08291872
253	0xbe8ff0bc	-0.28113353
254	0xbe836b0d	-0.2566761
255	0x3e25d8aa	0.16195932

tfl.pseudo_qconst i1 [8, 1, 3, 100]
0	0x1d	29
1	0xc8	-56
2	0xa2	-94
3	0x4c	76
4	0x94	-108
5	0x39	57
6	0x22	34
7	0x99	-103
8	0x48	72
9	0x37	55
10	0xdb	-37
11	0x9e	-98
12	0x11	17
13	0x26	38
14	0x45	69
15	0xa5	-91
16	0x0f	15
17	0x40	64
18	0x37	55
19	0x9f	-97
20	0xec	-20
21	0x8b	-117
22	0x21	33
23	0x55	85
24	0x86	-122
25	0xb1	-79
26	0x63	99
27	0x27	39
28	0x05	5
29	0xdc	-36
30	0x6f	111
31	0x32	50
32	0x0d	13
33	0xe4	-28
34	0x4b	75
35	0x76	118
36	0x4e	78
37	0x2c	44
38	0x00	0
39	0xfc	-4
40	0x18	24
41	0xbb	-69
42	0xf5	-11
43	0x39	57
44	0x96	-106
45	0xa3	-93
46	0x53	83
47	0x14	20
48	0xf2	-14
49	0xd3	-45
50	0xb6	-74
51	0x33	51
52	0xb8	-72
53	0x65	101
54	0x53	83
55	0x04	4
56	0x3a	58
57	0xab	-85
58	0xdd	-35
59	0x03	3
60	0xeb	-21
61	0xdf	-33
62	0x10	16
63	0x2a	42
64	0x0e	14
65	0x69	105
66	0x53	83
67	0xa6	-90
68	0x15	21
69	0x5b	91
70	0xcb	-53
71	0xe0	-32
72	0xa3	-93
73	0x57	87
74	0x6b	107
75	0x8e	-114
76	0x07	7
77	0xc6	-58
78	0xe6	-26
79	0xfc	-4
80	0xb1	-79
81	0xef	-17
82	0x53	83
83	0x72	114
84	0xfc	-4
85	0xee	-18
86	0x2d	45
87	0x97	-105
88	0xa2	-94
89	0x60	96
90	0x52	82
91	0x37	55
92	0x01	1
93	0x83	-125
94	0x4d	77
95	0x57	87
96	0xef	-17
97	0x9d	-99
98	0x2b	43
99	0x38	56
100	0x8e	-114
101	0x6d	109
102	0x36	54
103	0xe0	-32
104	0x1c	28
105	0xc4	-60
106	0x1e	30
107	0xac	-84
108	0x45	69
109	0xc5	-59
110	0x54	84
111	0xf2	-14
112	0xd5	-43
113	0x5c	92
114	0xc9	-55
115	0x57	87
116	0xb5	-75
117	0x63	99
118	0xf9	-7
119	0x36	54
120	0x4c	76
121	0x3b	59
122	0x4c	76
123	0xd8	-40
124	0x25	37
125	0xce	-50
126	0xa6	-90
127	0x5c	92
128	0x57	87
129	0xd5	-43
130	0x0c	12
131	0xc1	-63
132	0x6f	111
133	0xe3	-29
134	0x42	66
135	0xe8	-24
136	0x1a	26
137	0x4c	76
138	0xd2	-46
139	0x93	-109
140	0xd1	-47
141	0x09	9
142	0x81	-127
143	0xdd	-35
144	0x5e	94
145	0x03	3
146	0xee	-18
147	0x9c	-100
148	0x25	37
149	0x45	69
150	0x28	40
151	0x68	104
152	0x61	97
153	0xa0	-96
154	0xb2	-78
155	0x58	88
156	0xbf	-65
157	0xb1	-79
158	0x0d	13
159	0xa6	-90
160	0x68	104
161	0x34	52
162	0xde	-34
163	0x1d	29
164	0x2a	42
165	0x16	22
166	0xef	-17
167	0x11	17
168	0xe0	-32
169	0x8a	-118
170	0xcf	-49
171	0x70	112
172	0x3d	61
173	0xc0	-64
174	0xe1	-31
175	0x6f	111
176	0x54	84
177	0x93	-109
178	0x32	50
179	0x2d	45
180	0xbe	-66
181	0x02	2
182	0xa8	-88
183	0x6a	106
184	0x65	101
185	0x3f	63
186	0xcf	-49
187	0xf0	-16
188	0xe8	-24
189	0x99	-103
190	0xa2	-94
191	0xcf	-49
192	0x96	-106
193	0x2e	46
194	0x28	40
195	0x18	24
196	0x5f	95
197	0x47	71
198	0x64	100
199	0x15	21
200	0xb7	-73
201	0xdc	-36
202	0x30	48
203	0xef	-17
204	0xe6	-26
205	0x20	32
206	0x2b	43
207	0x6b	107
208	0x02	2
209	0xa3	-93
210	0x92	-110
211	0x9a	-102
212	0x0c	12
213	0x4a	74
214	0x2d	45
215	0xf8	-8
216	0x38	56
217	0xea	-22
218	0xaf	-81
219	0x84	-124
220	0xdf	-33
221	0x42	66
222	0x05	5
223	0xb5	-75
224	0x20	32
225	0x43	67
226	0xb4	-76
227	0x2e	46
228	0x60	96
229	0xe0	-32
230	0x01	1
231	0x61	97
232	0xd2	-46
233	0x61	97
234	0xfd	-3
235	0xd3	-45
236	0xe8	-24
237	0xa7	-89
238	0x34	52
239	0xef	-17
240	0x66	102
241	0x1b	27
242	0xb6	-74
243	0xbe	-66
244	0xe6	-26
245	0x6b	107
246	0xe2	-30
247	0xe5	-27
248	0x93	-109
249	0x6a	106
250	0xdd	-35
251	0xd4	-44
252	0xf4	-12
253	0x68	104
254	0x0e	14
255	0x66	102

tfl.pseudo_qconst1 i1 [32, 128]
0	0x43	67
1	0x61	97
2	0xf2	-14
3	0x40	64
4	0x55	85
5	0x29	41
6	0x5c	92
7	0x4d	77
8	0xf4	-12
9	0xd4	-44
10	0x3e	62
11	0x62	98
12	0x9b	-101
13	0x40	64
14	0x8e	-114
15	0x47	71
16	0xc1	-63
17	0xfb	-5
18	0x81	-127
19	0x43	67
20	0xd9	-39
21	0x55	85
22	0x27	39
23	0xeb	-21
24	0xe1	-31
25	0x67	103
26	0xa9	-87
27	0xba	-70
28	0xed	-19
29	0xce	-50
30	0xef	-17
31	0x63	99
32	0xda	-38
33	0x8f	-113
34	0xbe	-66
35	0x43	67
36	0x54	84
37	0xfb	-5
38	0x3f	63
39	0x61	97
40	0xf2	-14
41	0x67	103
42	0x55	85
43	0x9c	-100
44	0xc1	-63
45	0x98	-104
46	0xff	-1
47	0xaf	-81
48	0xab	-85
49	0xe2	-30
50	0xfe	-2
51	0x00	0
52	0xf6	-10
53	0x20	32
54	0xb1	-79
55	0x62	98
56	0x17	23
57	0x08	8
58	0x65	101
59	0xd3	-45
60	0xd1	-47
61	0x84	-124
62	0x6a	106
63	0xf8	-8
64	0x4c	76
65	0x3f	63
66	0x18	24
67	0x5a	90
68	0xc6	-58
69	0xa5	-91
70	0x61	97
71	0x0e	14
72	0x3e	62
73	0x41	65
74	0x66	102
75	0x39	57
76	0xa4	-92
77	0x50	80
78	0x30	48
79	0x2b	43
80	0xea	-22
81	0x8e	-114
82	0xd2	-46
83	0x2d	45
84	0xf0	-16
85	0xf9	-7
86	0x82	-126
87	0x60	96
88	0x66	102
89	0x38	56
90	0x48	72
91	0x8f	-113
92	0x2d	45
93	0x62	98
94	0x10	16
95	0x00	0
96	0xfe	-2
97	0xc0	-64
98	0xb8	-72
99	0xdf	-33
100	0x3b	59
101	0xd5	-43
102	0xbf	-65
103	0xdb	-37
104	0xfe	-2
105	0x4c	76
106	0x4d	77
107	0x63	99
108	0xc6	-58
109	0x51	81
110	0x97	-105
111	0x10	16
112	0x65	101
113	0x14	20
114	0xae	-82
115	0x57	87
116	0xc7	-57
117	0xd9	-39
118	0xc6	-58
119	0xb7	-73
120	0x92	-110
121	0xee	-18
122	0x13	19
123	0xc0	-64
124	0x31	49
125	0xbd	-67
126	0xc9	-55
127	0x98	-104
128	0xf7	-9
129	0x97	-105
130	0xfd	-3
131	0x8c	-116
132	0x97	-105
133	0x9d	-99
134	0x5e	94
135	0xf5	-11
136	0xd5	-43
137	0xd0	-48
138	0xa2	-94
139	0x62	98
140	0x56	86
141	0x1d	29
142	0x8d	-115
143	0x0a	10
144	0x2b	43
145	0x39	57
146	0xc5	-59
147	0x56	86
148	0x6f	111
149	0x3d	61
150	0xfa	-6
151	0x64	100
152	0xda	-38
153	0xbd	-67
154	0xfc	-4
155	0xb7	-73
156	0xbc	-68
157	0xb8	-72
158	0x1c	28
159	0xf5	-11
160	0x61	97
161	0xac	-84
162	0x05	5
163	0xb7	-73
164	0xbb	-69
165	0x53	83
166	0xaf	-81
167	0xc3	-61
168	0xc1	-63
169	0x8f	-113
170	0x81	-127
171	0xd6	-42
172	0xd4	-44
173	0x2d	45
174	0xce	-50
175	0xa7	-89
176	0xc6	-58
177	0x6f	111
178	0x89	-119
179	0x3c	60
180	0x78	120
181	0xa0	-96
182	0xc0	-64
183	0x8c	-116
184	0xaf	-81
185	0xaa	-86
186	0x8b	-117
187	0x53	83
188	0x71	113
189	0x66	102
190	0xe9	-23
191	0xd7	-41
192	0xe7	-25
193	0x7b	123
194	0x5b	91
195	0x9b	-101
196	0x90	-112
197	0x46	70
198	0x25	37
199	0xee	-18
200	0xb5	-75
201	0x48	72
202	0x5a	90
203	0x58	88
204	0xee	-18
205	0xf5	-11
206	0x59	89
207	0x88	-120
208	0x65	101
209	0x63	99
210	0x53	83
211	0x50	80
212	0xdc	-36
213	0xaa	-86
214	0x19	25
215	0x47	71
216	0xfa	-6
217	0x5d	93
218	0x2b	43
219	0x5d	93
220	0xb8	-72
221	0x02	2
222	0x98	-104
223	0xee	-18
224	0x12	18
225	0x58	88
226	0xad	-83
227	0xdb	-37
228	0xc8	-56
229	0x87	-121
230	0x07	7
231	0xce	-50
232	0xec	-20
233	0x26	38
234	0x48	72
235	0x2c	44
236	0xa8	-88
237	0x66	102
238	0xd7	-41
239	0x44	68
240	0xba	-70
241	0xf3	-13
242	0xeb	-21
243	0x8a	-118
244	0x29	41
245	0x77	119
246	0xe4	-28
247	0xf5	-11
248	0xac	-84
249	0xe6	-26
250	0x4d	77
251	0xec	-20
252	0xb5	-75
253	0x2c	44
254	0x10	16
255	0xfe	-2
