models/kws_model.tflite (tflite, 15296 bytes, 8 tensors)

arith.constant3 f4 [10]
000000 28 fd 70 bc a3 ef 9b 3b ae 85 2f 3c bb 71 3b bc
       -0.014708795 0.0047587915 0.010713024 -0.01144069
000010 01 43 1d bc d2 4c 5c 3c 0e 08 31 3c 70 ed 55 bc
       -0.0095984945 0.01344605 0.010805143 -0.013057098
000020 24 be fd bb 60 0d 7a 3c
       -0.007743614 0.015261978

arith.constant4 f4 [32]
000000 a0 5b 4d ba 81 2d 60 bc 3c a6 0e 3c d0 8a 41 bc
       -0.00078337826 -0.013682724 0.008706626 -0.011812881
000010 7e 96 b6 3b 2e 73 2c bc 63 d8 a3 bb 7c d3 a6 bb
       0.0055721393 -0.010525508 -0.0050001605 -0.005091129
000020 d0 94 a7 bb 56 8a d3 bb 7d 2f 64 bc dc 96 1e bc
       -0.0051141754 -0.0064557 -0.013927338 -0.009679522
000030 df 53 4f bb 1c fc d0 3b cd 4b 9d 3b 01 09 fa bb
       -0.0031635684 0.00637771 0.004800296 -0.007630468
000040 a0 2d 43 bc c4 0a bb bb 7c 15 22 bc d7 8d 30 bc
       -0.011912733 -0.0057080705 -0.009892818 -0.010776005
000050 21 c4 fd bb 1c f5 64 bc d8 bf e7 ba 46 86 9b bb
       -0.0077443277 -0.013974454 -0.0017681075 -0.0047462313
000060 aa e6 22 bb 6f 4d 99 ba b8 f6 7e bc f0 1b 1f bc
       -0.0024856725 -0.0011696051 -0.015561752 -0.009711251
000070 af e2 66 bb 46 f3 62 3c fa 3f c3 3b d5 b4 4e bb
       -0.0035230329 0.013851946 0.0059585543 -0.003154089

arith.constant5 f4 [10, 32]
000000 05 2a 45 3e c5 d7 93 3e 40 60 e0 bd ac 6b a1 3e
       0.1925431 0.28875557 -0.10955858 0.3152746
000010 75 43 76 3e e5 7c b3 3e d4 19 38 3e 33 f4 d3 bd
       0.2404917 0.35056224 0.17978603 -0.10349312
000020 a3 77 e6 bd 4c c7 17 3e 64 9e b8 3e e0 41 c0 be
       -0.11253288 0.1482212 0.36058342 -0.3755026
000030 04 7d 40 be 80 bf 92 be be e3 8b be cb 5c 17 3e
       -0.1879769 -0.28661728 -0.2732219 0.14781491
000040 6f 06 35 3e f6 e2 08 be 88 f2 68 be 16 04 0d bd
       0.17678235 -0.13367829 -0.22748768 -0.034427725
000050 2e b1 4e 3e 84 85 65 3e db bf c5 be 5a d4 40 3e
       0.20184776 0.22414213 -0.38622937 0.18831006
000060 3d ad 9a 3e cf 7d 66 3c 3d 56 b9 3e 53 a7 a3 be
       0.30210295 0.014068081 0.36198607 -0.31963596
000070 43 b4 2c bc 12 e8 7c bd 2d 36 36 3e e1 06 41 3e
       -0.010541025 -0.061744757 0.17794104 0.1885028
000080 ea d6 9a bc 50 de ab 3e 50 81 b7 3e a0 6c a4 be
       -0.018901307 0.33568048 0.35840845 -0.32114124
000090 2d ce b9 be af 19 2c be 1f 25 93 3e 0a 66 ac bd
       -0.36290112 -0.16806673 0.2873926 -0.084179
0000a0 ca 22 8d be 8c 27 ec 3b bc 2a 15 bd d7 7b d2 bd
       -0.27565604 0.007206863 -0.036417708 -0.10277527
0000b0 88 3b f4 3d ac 39 5e 3e c6 92 25 3b 62 9f 95 3e
       0.11925417 0.21701688 0.0025264486 0.29223162
0000c0 c9 23 03 3e 59 8c 30 be 84 06 9b be d8 d5 99 be
       0.1280662 -0.17241038 -0.3027841 -0.30045962
0000d0 3e de 93 be 22 8a 8b be 60 53 05 be 85 99 5f 3e
       -0.28880495 -0.27253824 -0.13020086 0.21835907
0000e0 88 ab c3 3d 12 5b 86 3e aa af 8e be f8 da 93 3e
       0.09554201 0.26241356 -0.27868396 0.28877997
0000f0 89 ac 7f be 93 5b 16 3e 26 18 06 be 33 8f db bd
       -0.2496816 0.1468337 -0.1309515 -0.107206725
000100 ba 78 9d 3e 83 31 b2 3e 72 58 c7 bc 9b 2d 2b be
       0.3075617 0.348034 -0.024334166 -0.16716616
000110 63 d2 99 be 63 0a 7c 3e 54 00 13 3e 67 1d 51 3d
       -0.30043325 0.24613337 0.14355594 0.05105343
000120 37 1f 7c 3d bc 79 51 3d 5e ad 3c be e5 48 42 3e
       0.061553206 0.051141486 -0.1842551 0.1897312
000130 7c a7 43 bc 46 8f b4 3e 13 4e 3c 3e 85 e3 8f 3e
       -0.011941787 0.3526556 0.18389158 0.2810327
000140 27 54 10 be 7d eb 5b 3e 97 3b 93 be 21 d5 69 be
       -0.14094602 0.2147655 -0.287564 -0.22835208
000150 92 4b 2f bd 9d b3 e0 3c 7c 1e bc 3e ed ba 64 3d
       -0.04279668 0.027429396 0.36742008 0.05584233
000160 73 68 12 be d0 1e 90 3e 95 86 1f 3e 25 43 21 3d
       -0.14297657 0.28148508 0.15578683 0.039370675
000170 08 ab 9b be 3b fa ad 3e 84 18 10 3e 03 6e 7c bd
       -0.30403924 0.33979973 0.14071852 -0.061628353
000180 aa dc 06 bd 14 4e f6 3d 40 ec 62 be fd 66 af 3e
       -0.032925285 0.12026611 -0.22160435 0.3425826
000190 a7 3c 1c 3e c1 80 cc bb 75 0d 7c 3d 54 8d d7 bd
       0.15257512 -0.0062409346 0.06153627 -0.10525003
0001a0 d2 05 93 3e 48 ff a7 bd 66 c8 a9 3e 63 f4 d9 3d
       0.28715378 -0.08202988 0.33160704 0.10642316
0001b0 3b 84 8f bc 91 bb ad be 59 c4 f8 3c ca f6 05 be
       -0.017519107 -0.33932164 0.030367063 -0.13082424
0001c0 d8 6e 19 bd 8f 08 b0 3e 66 45 97 bd 34 97 84 3d
       -0.037459224 0.3438153 -0.073862836 0.06474152
0001d0 61 df 10 3e 9d f5 93 3e d7 a0 43 be d5 40 a9 3e
       0.14147712 0.28898326 -0.19104324 0.33057275
0001e0 23 70 ea bd 40 cd 27 3e 5d 8c 8d 3e 03 cc b7 bd
       -0.1144717 0.1638689 0.2764615 -0.08974459
0001f0 5b 7f 7b be f4 53 ec 3d 83 e1 09 3d 16 01 6f 3e
       -0.24560301 0.1153945 0.03366233 0.23340258
000200 23 f0 b5 be 11 1e 5c 3e eb 71 e8 3d b8 b5 5e 3e
       -0.35534772 0.21495844 0.11349853 0.21749008
000210 60 96 72 be 96 70 02 3e 25 32 3b be bd c1 21 3e
       -0.23690176 0.1273826 -0.18280847 0.15796562
000220 f6 09 f6 3d da 77 3d 3e 27 1a da 3d 83 f8 6b be
       0.12013619 0.18502751 0.106495194 -0.23044018
000230 57 ec 03 3d 82 48 35 be 92 61 8e be 12 2c 91 3e
       0.032207813 -0.17703441 -0.27808815 0.28353935
000240 ae 19 a8 3d 04 d7 ad be b0 be c6 bd f3 1e 8f 3e
       0.08208023 -0.33953106 -0.097043395 0.279533
000250 f7 16 55 3e f7 67 14 be b3 5c ad be a2 c3 42 3e
       0.20809542 -0.14492784 -0.33859786 0.1901994
000260 c5 64 bc be bc 1d c2 be dc 94 8e be 1d a9 85 bd
       -0.3679563 -0.3791331 -0.27847946 -0.065263964
000270 9f 20 b0 3e 5a cc 18 3e 94 58 bd be 66 65 a3 bd
       0.34399888 0.14921704 -0.36981642 -0.079783246
000280 13 65 c9 bc 4c 6d 91 be 57 4c 5a 3e de 5f 39 be
       -0.024584329 -0.284037 0.21318184 -0.18102977
000290 4e 06 51 3e 00 82 e8 bc 84 78 6d bc 81 a9 4c 3e
       0.20412561 -0.028382301 -0.014494065 0.19986536
0002a0 8c d3 e8 3d 85 9d c4 bc 7e 15 80 be 0e 1f a2 be
       0.11368474 -0.024000892 -0.25016397 -0.31664318
0002b0 35 a2 24 3e ef b1 82 be e9 55 5c be 07 f7 87 be
       0.16077502 -0.25526378 -0.21517147 -0.26555654
0002c0 7a 22 18 be 8f f2 ee bd 76 b3 f7 bd a7 28 0f be
       -0.14856902 -0.11667358 -0.12094776 -0.13980351
0002d0 2e f2 ab be ac 70 7e be 33 63 b9 3e ab 3f ef bb
       -0.33583206 -0.24847668 0.36208495 -0.007301291
0002e0 9a ee 8a be 56 a7 50 be df 2d b6 3e d1 96 fe bd
       -0.27135164 -0.20376334 0.35581872 -0.1243111
0002f0 8a 39 2e be 46 25 cb 3d 57 c6 d2 bc 01 93 4e 3e
       -0.17014137 0.09919219 -0.025729341 0.20173265
000300 6a ad 80 be 90 7d 5b 3e 7f 18 c8 3c 0e 6a b6 be
       -0.25132304 0.21434617 0.024425743 -0.35627788
000310 cd 73 71 be 65 de bc 3e fb c2 9c be e0 71 63 be
       -0.2357933 0.36888424 -0.30617508 -0.22211409
000320 55 a0 c4 bd 57 9f 21 bc f7 ef 8e be 84 23 3d be
       -0.096008934 -0.00986465 -0.27917454 -0.1847058
000330 0a f5 08 bd e1 2c c6 bd 35 78 2c 3e a7 33 4f bd
       -0.033436812 -0.09676529 0.1684273 -0.05058637
000340 34 9a 46 be 8d 05 79 3e 94 3d 9f 3d a3 d1 99 3e
       -0.19394761 0.24318524 0.07775417 0.30042753
000350 eb c6 08 be 19 e3 2a 3e 8e c5 a1 b9 4f 3e c1 3e
       -0.13357131 0.16688193 -0.00030855503 0.3774285
000360 a8 f6 35 be b7 24 74 be af ca e4 bd 4c c3 a5 3e
       -0.17769873 -0.2384213 -0.11171471 0.32375562
000370 a2 60 6c be bc 39 5b 3c 56 42 aa 3d 03 2a 34 3c
       -0.23083737 0.013380464 0.08313434 0.0109963445
000380 b1 94 71 be 84 b3 ac 3e f5 28 91 be 16 93 eb 3d
       -0.23591878 0.3373071 -0.2835156 0.11502664
000390 88 01 8c 3d b4 ea 0f bd 32 a7 8c 3c e7 a1 31 3d
       0.068362296 -0.03513594 0.017169569 0.043367293
0003a0 be 6d be be 53 97 b1 3e 72 81 aa 3e 27 af c4 3d
       -0.37193102 0.34685764 0.33301884 0.0960372
0003b0 99 9d a5 3e 43 a1 aa be d4 e9 73 3e a2 a0 2b be
       0.323468 -0.33326158 0.23819667 -0.16760495
0003c0 b6 b3 98 3e 29 92 a5 be d1 30 ab bc 94 df 30 be
       0.2982461 -0.32338074 -0.0208973 -0.17272788
0003d0 53 9a 08 bd 15 55 b3 3e 58 b7 a5 be fe 7e 05 be
       -0.0333503 0.3502585 -0.32366443 -0.13036725
0003e0 dc aa 07 3c 62 67 39 3d 71 29 d8 3d ff c6 b0 3e
       0.008280482 0.04526461 0.10554779 0.34526822
0003f0 60 0f 85 3d fe 85 2f be 8a dc 14 3e cb b3 89 3d
       0.06497073 -0.17140958 0.14537254 0.06723746

arith.constant6 f4 [16]
000000 19 18 61 ba 2d a4 e7 bb e0 f3 10 bb d5 37 46 bc
       -0.00085866597 -0.007069132 -0.0022118017 -0.012098272
000010 a3 b9 cc 3b 82 aa 9c 3b dc 85 a9 bb e1 1f 84 3b
       0.0062477156 0.0047810683 -0.005173428 0.0040321206
000020 91 d7 5e bc 84 a1 aa 3b 25 e5 04 bc 3f 15 10 bc
       -0.0136012 0.0052072424 -0.008111273 -0.008794128
000030 a9 77 14 3b 99 d1 81 bc 34 33 02 3c be 75 40 bc
       0.002265433 -0.015847014 0.007946778 -0.011746822

arith.constant7 f4 [8]
000000 13 c6 94 bb af c1 8f bc 99 54 21 3c 5b 70 3a bc
       -0.004540214 -0.01754841 0.00984683 -0.011379327
000010 a5 79 3b bc b2 08 78 bc cb 4e 2a ba 2a ad d8 bb
       -0.011442577 -0.015138792 -0.00064967264 -0.0066124396

arith.constant11 f4 [16, 1, 3, 8]
000000 0b b2 92 be 9d e1 b7 bd db 61 8c 3e 49 58 8f 3e
       -0.2865146 -0.08978579 0.27418408 0.27997044
000010 21 ac bf 3d 96 da 0c 3d 23 66 fa 3d 62 1a 51 be
       0.09359003 0.034388147 0.12226512 -0.2042022
000020 03 fd 6c 3e 51 31 93 3e 93 7a 17 3e 0a ee 90 be
       0.23143391 0.28748563 0.14792852 -0.2830661
000030 b7 71 90 bd 86 93 3a 3e d7 99 5b 3e 99 25 0d bd
       -0.070529394 0.18220338 0.21445404 -0.034459684
000040 b7 b1 a4 3c 3e 3f 71 be 83 9b 42 be 60 50 09 be
       0.020104272 -0.23559281 -0.19004636 -0.13409567
000050 64 35 14 be 71 08 64 be 18 c7 4b 3e 95 21 43 3e
       -0.14473492 -0.22268845 0.19900167 0.1905578
000060 f3 9d e0 bd e4 fa 1b be 7c 6c 86 be 09 fa 91 be
       -0.109676264 -0.15232426 -0.26254642 -0.28511074
000070 3c ad cb 3d b5 a6 6b 3d be 5d 57 3e e2 2f ba bd
       0.09945151 0.05753203 0.21031854 -0.09091164
000080 63 c5 63 3c 59 92 62 be d5 bc 2d bd 5e 8f 30 3d
       0.013902041 -0.2212614 -0.042416412 0.043105476
000090 ae 59 85 be c3 31 14 3a ce 03 fd bc a6 45 c5 3d
       -0.26044983 0.0005653167 -0.030885603 0.09632425
0000a0 86 c4 2c 3e 3c 02 53 bd 2f 4e 7c be 20 a8 81 3e
       0.16871843 -0.051515803 -0.246392 0.25323582
0000b0 24 c2 ac bd e3 d6 12 3e 06 1f 79 be 3e 74 7f 3e
       -0.08435467 0.14339785 -0.24328241 0.24946687
0000c0 5a 1a 3a be af 8c d8 bc a4 c6 88 be 6e a0 36 3d
       -0.18174115 -0.02643427 -0.2671405 0.04458659
0000d0 f1 d1 45 3e 7a 5e 6c 3e d9 69 2a 3e a7 80 10 be
       0.19318368 0.23082915 0.1664194 -0.14111577
0000e0 b5 1e 10 be 54 5a df 3c b9 f9 52 be d3 e9 18 3e
       -0.14074214 0.027264751 -0.20603074 0.14932947
0000f0 e5 50 5d 3e a5 82 79 bd 7f e9 51 be 69 07 8e 3e
       0.2161289 -0.060915608 -0.20499228 0.27740029
000100 0b 4b 10 3e ba 9a 7f bc e9 87 4f be b6 61 88 3e
       0.14091127 -0.0156008545 -0.2026669 0.26637048
000110 fc 09 72 be 08 0d 7e 3d 4c 47 38 3d e0 d6 ae bd
       -0.23636621 0.062024146 0.04498987 -0.08537078
000120 1b 3e b6 3d 60 17 d4 bd da 97 79 3e a5 0e 64 3c
       0.088985644 -0.10356021 0.24374333 0.013919507
000130 91 e8 35 be 88 24 76 3e a8 68 24 bd ed 72 3b be
       -0.17764498 0.24037373 -0.04013887 -0.1830556
000140 ec 1d 48 bd 2e b2 1b bd 47 70 43 3d ea eb 2a be
       -0.04885666 -0.038011722 0.047714498 -0.16691557
000150 95 7e cd bd b3 1f 81 bd d4 4f ba 3d 37 51 4e 3e
       -0.10033909 -0.06304874 0.09097257 0.20148169
000160 c4 c6 64 3e 90 83 7b be 57 bc ed bd 1f f6 81 3d
       0.22341448 -0.24561906 -0.116081886 0.06345772
000170 6d e9 00 be 11 fd 75 bd 51 e2 32 be f8 cc 7c 3e
       -0.12589045 -0.060055796 -0.17469145 0.24687564
000180 57 fd 89 be 5d 3e 2e be f1 a5 fa bd 06 f3 03 3c
       -0.26951095 -0.17015977 -0.12238682 0.008053547
000190 02 fe 4a 3e 4f ad 81 be 74 20 4d 3e 0c b4 c3 3d
       0.19823459 -0.25327536 0.20031911 0.095558256
0001a0 69 09 37 3e 3f fa 6b be c1 d0 7d be 28 4c ce bd
       0.17874683 -0.2304468 -0.24786665 -0.100731194
0001b0 65 f1 42 be 07 c8 7d bc af 43 55 be db aa 80 3e
       -0.19037397 -0.015489585 -0.208266 0.25130352
0001c0 f4 b3 80 3d 63 31 22 3d 74 9a aa 3d ea c8 28 be
       0.06284323 0.03959788 0.08330241 -0.16482893
0001d0 6d 15 8c 3e c8 80 ec bd 01 76 60 3c 20 5f 32 be
       0.27360097 -0.115480006 0.013700009 -0.174191
0001e0 af 7b 16 3e c3 5e e3 bc a8 36 0d 3d c6 a8 3a be
       0.14695619 -0.027755147 0.034475952 -0.18228444
0001f0 0d 5a 06 be 48 45 85 be c4 70 38 be 44 68 4d bc
       -0.13120289 -0.2602942 -0.18011767 -0.012537066
000200 e1 0e 37 bc e2 fe 40 be 5f 75 8a be 4d cd 2a bd
       -0.011172981 -0.1884723 -0.27042672 -0.041699696
000210 26 2d 62 be a4 12 2a be ba ce 79 3e 1c 54 0a be
       -0.22087535 -0.16608673 0.24395266 -0.13508648
000220 8f d3 7b be 8e c5 b1 3b 08 c8 d0 3d d9 6d 62 3e
       -0.24592422 0.0054251617 0.10194403 0.22112216
000230 e6 d0 5f be 60 90 d9 bd b0 75 38 be c4 b3 8a 3d
       -0.21857032 -0.106232405 -0.18013644 0.06772569
000240 2d 76 96 bd 16 57 85 3e 97 02 96 3d b1 bc 55 be
       -0.07346759 0.26043004 0.07324713 -0.20872761
000250 9b c6 5c 3e af 8d 8d 3e 5b 26 3b 3e 83 aa 2f 3e
       0.21560137 0.27647159 0.1827635 0.17154889
000260 15 ef 1b 3d b6 00 00 3e 10 38 a5 3c d5 c7 72 be
       0.038069803 0.12500271 0.020168334 -0.23709042
000270 61 d0 82 bc 79 17 c5 bd bc 88 7a 3e 0e 2c 2f bd
       -0.015968503 -0.09623618 0.24466223 -0.042766623
000280 a5 62 89 3e fc 21 62 be 72 57 70 3e d8 65 97 3d
       0.26833072 -0.22083277 0.23470858 0.07392472
000290 5f 0e 18 be 2a 8f 37 3e f1 1d 63 be 9e c4 5f bd
       -0.14849232 0.17925707 -0.2217939 -0.054630868
0002a0 85 7a 54 3e df f7 81 3e 22 c0 2f 3c 86 a6 48 3e
       0.20749862 0.25384423 0.01072696 0.19594774
0002b0 fc 64 8c be fa 77 09 be e9 b8 5d 3e d2 78 34 be
       -0.27420795 -0.13424674 0.21652569 -0.17624214
0002c0 68 2d 85 bc ce 87 b2 bd 63 c2 2a bc 80 79 30 bd
       -0.016257003 -0.08717309 -0.010422322 -0.04308462
0002d0 92 62 8c 3e 82 71 92 3e 83 d3 50 be 61 74 0d 3e
       0.27418953 0.28602225 -0.20393185 0.13813926
0002e0 62 fd 80 3d 3b 98 6e 3c 49 1a 16 be 3b b2 1f bd
       0.06298329 0.014562662 -0.14658464 -0.038988333
0002f0 e5 bd a8 bc 90 6e 00 be fa 11 7f be fd ed 59 be
       -0.020598361 -0.12542176 -0.24909201 -0.21282192
000300 64 53 a9 bd 41 03 08 3c ce 73 1f 3e 40 fa 24 3e
       -0.082678586 0.008301557 0.1557152 0.16111088
000310 0a ea 93 ba 99 2a 21 be 5a 57 44 3d b3 43 2f 3e
       -0.0011284959 -0.15738906 0.047934867 0.17115669
000320 c9 03 12 3e 2f 99 02 3d 49 f2 47 be 56 6b 31 3e
       0.14259256 0.03188437 -0.19526018 0.17326102
000330 63 f7 83 bd c9 f6 de 3d cf 75 39 be 75 f9 8f be
       -0.0644367 0.10886914 -0.18111347 -0.28120008
000340 6f ad f6 3d ac be 88 3e d6 ff 81 be db 7e e4 bd
       0.120447986 0.2670797 -0.253905 -0.11157008
000350 d2 46 05 3e 3c 92 32 3e af 19 8d 3e 5a a9 4c 3e
       0.13015297 0.17438596 0.27558658 0.19986477
000360 48 50 9f bd 19 ff 01 3e 6b 33 1c 3e 25 dd 29 bd
       -0.07778984 0.12694968 0.1525399 -0.041470665
000370 ca 1e 0d 3e 2e c3 28 bc 53 cf 66 3e 41 fb 01 be
       0.13781276 -0.010300441 0.22540025 -0.12693502
000380 d6 ec 85 3e d3 ce 52 be 7e a5 4f be c2 ea 89 be
       0.26157254 -0.2058671 -0.20277974 -0.26936918
000390 e9 cb 2f be 7c 6b 7f be 34 fe e1 3d f2 b5 74 be
       -0.1716763 -0.24943346 0.110348135 -0.23897532
0003a0 f8 4a 82 3e 86 37 0d be 27 ef 5b be d0 e9 c1 bd
       0.25447822 -0.13790712 -0.21477948 -0.09468424
0003b0 f9 23 ee bd 73 87 52 be 8b ce f4 3d 4b b2 39 3e
       -0.11627955 -0.20559482 0.119534574 0.1813442
0003c0 ec d9 d8 3c 05 b2 40 3e 59 5b f6 3d cf 3a b2 bd
       0.0264711 0.18817909 0.12029142 -0.08702623
0003d0 99 14 74 3e 69 c7 8a 3e 4a 71 44 be a3 7d 90 be
       0.23835982 0.27105263 -0.19183841 -0.28220853
0003e0 b3 1f ee bd 0c 32 2b be 33 dc 8d 3e 54 0b 0e be
       -0.1162714 -0.1671831 0.2770706 -0.13871509
0003f0 f6 1b 9c bc a0 29 a0 3d 7e b7 27 3d 78 c5 54 3e
       -0.019056302 0.07820439 0.040946476 0.20778453

tfl.pseudo_qconst i1 [8, 1, 3, 100]
000000 4a e2 fb de eb 8d f6 24 90 3d 4a 70 a9 98 f2 c2
       74 -30 -5 -34 -21 -115 -10 36 -112 61 74 112 -87 -104 -14 -62
000010 70 ab 95 b5 bd e1 b8 44 bf 02 0e fa c4 b7 33 e4
       112 -85 -107 -75 -67 -31 -72 68 -65 2 14 -6 -60 -73 51 -28
000020 fe 4e 69 e3 b6 46 51 1b 08 f1 db ce b6 93 d3 12
       -2 78 105 -29 -74 70 81 27 8 -15 -37 -50 -74 -109 -45 18
000030 59 79 d9 e7 7f ec 7f 12 99 bb b9 ed ed 63 02 53
       89 121 -39 -25 127 -20 127 18 -103 -69 -71 -19 -19 99 2 83
000040 f2 78 17 18 5f 4e de 7d 79 de c0 95 a4 0d a9 c3
       -14 120 23 24 95 78 -34 125 121 -34 -64 -107 -92 13 -87 -61
000050 19 48 a0 64 a7 29 a6 72 c4 43 d4 24 1a 47 6d b4
       25 72 -96 100 -89 41 -90 114 -60 67 -44 36 26 71 109 -76
000060 4c b9 25 d7 cc ec d2 a6 2c 26 68 d1 58 e6 f8 7b
       76 -71 37 -41 -52 -20 -46 -90 44 38 104 -47 88 -26 -8 123
000070 64 93 20 17 8d 41 f2 64 55 61 c2 66 d3 13 17 e8
       100 -109 32 23 -115 65 -14 100 85 97 -62 102 -45 19 23 -24
000080 62 a5 b0 41 b9 67 f0 d8 a0 3d 5f b5 ed 4e 9f a8
       98 -91 -80 65 -71 103 -16 -40 -96 61 95 -75 -19 78 -97 -88
000090 c4 03 52 50 74 18 b5 51 5a b2 c1 ff a5 43 c5 ab
       -60 3 82 80 116 24 -75 81 90 -78 -63 -1 -91 67 -59 -85
0000a0 e0 9a d3 bb 14 bb ee 41 9e 01 3a 9d cb ff a4 e3
       -32 -102 -45 -69 20 -69 -18 65 -98 1 58 -99 -53 -1 -92 -29
0000b0 93 60 63 06 32 50 18 fc 30 0f a7 be d9 64 6a 77
       -109 96 99 6 50 80 24 -4 48 15 -89 -66 -39 100 106 119
0000c0 3c 1b 6f b0 75 e1 5e 06 5e 10 7c 32 b5 02 1a 3f
       60 27 111 -80 117 -31 94 6 94 16 124 50 -75 2 26 63
0000d0 f7 b6 05 6f 6b 62 96 e9 2c 2c 61 04 07 af 76 cf
       -9 -74 5 111 107 98 -106 -23 44 44 97 4 7 -81 118 -49
0000e0 b2 55 c5 66 53 cf 92 47 65 31 50 61 5d d9 16 1b
       -78 85 -59 102 83 -49 -110 71 101 49 80 97 93 -39 22 27
0000f0 38 ae 6b e0 40 1f 01 9b 86 6c ad 74 c9 cc e2 64
       56 -82 107 -32 64 31 1 -101 -122 108 -83 116 -55 -52 -30 100

tfl.pseudo_qconst1 i1 [32, 128]
000000 bf 06 c7 6c 54 e3 e0 6f 9a f9 0f 41 6a 6e 67 9f
       -65 6 -57 108 84 -29 -32 111 -102 -7 15 65 106 110 103 -97
000010 ca 55 53 37 fd b0 aa 12 73 c5 14 fd b9 7a b2 16
       -54 85 83 55 -3 -80 -86 18 115 -59 20 -3 -71 122 -78 22
000020 ba 5c 00 e6 66 06 8e af 12 a0 fb cf f0 2d ee 2c
       -70 92 0 -26 102 6 -114 -81 18 -96 -5 -49 -16 45 -18 44
000030 4b ab 20 0c d9 57 7f 96 28 e9 02 09 c2 e1 69 c7
       75 -85 32 12 -39 87 127 -106 40 -23 2 9 -62 -31 105 -57
000040 09 89 8a 1d d3 83 b7 5f 9e 8a 4c d6 53 3f 5e 46
       9 -119 -118 29 -45 -125 -73 95 -98 -118 76 -42 83 63 94 70
000050 10 28 f6 3b 94 37 68 58 07 da 12 b5 c8 f0 5e 06
       16 40 -10 59 -108 55 104 88 7 -38 18 -75 -56 -16 94 6
000060 ef df 78 d7 8b aa dc 39 65 ee da 0d 12 3a f6 d3
       -17 -33 120 -41 -117 -86 -36 57 101 -18 -38 13 18 58 -10 -45
000070 93 68 c1 61 79 f2 82 8a a2 ab 3b da a2 12 68 4c
       -109 104 -63 97 121 -14 -126 -118 -94 -85 59 -38 -94 18 104 76
000080 81 44 e5 51 11 aa 05 1a 24 84 4c 09 14 6a 46 2a
       -127 68 -27 81 17 -86 5 26 36 -124 76 9 20 106 70 42
000090 3e cc 63 da a8 8f 47 d4 ca 97 e6 93 b4 18 e2 ca
       62 -52 99 -38 -88 -113 71 -44 -54 -105 -26 -109 -76 24 -30 -54
0000a0 e2 7b d7 71 da a7 11 5b 4d 10 a8 11 5c 56 1d 06
       -30 123 -41 113 -38 -89 17 91 77 16 -88 17 92 86 29 6
0000b0 50 9e ed 32 71 84 be 03 04 fc 86 3e 68 a3 8d dd
       80 -98 -19 50 113 -124 -66 3 4 -4 -122 62 104 -93 -115 -35
0000c0 0c 0a 4b 48 14 9d e9 af 4f 8a b4 27 0c 46 82 d4
       12 10 75 72 20 -99 -23 -81 79 -118 -76 39 12 70 -126 -44
0000d0 90 19 eb b2 f8 58 8c bd f6 b6 c4 11 9c aa 4a 6e
       -112 25 -21 -78 -8 88 -116 -67 -10 -74 -60 17 -100 -86 74 110
0000e0 11 5b 48 e7 dd 87 1a 9f e1 fc 3f 8e 8b 9b ba 0d
       17 91 72 -25 -35 -121 26 -97 -31 -4 63 -114 -117 -101 -70 13
0000f0 73 ea 1c ec bd 5d 03 c6 bb 06 b0 0f 5f 74 c8 49
       115 -22 28 -20 -67 93 3 -58 -69 6 -80 15 95 116 -56 73
